verification_freeze_model.tflite (tflite, 58648 bytes, 5 tensors)

arith.constant3 f4 [5, 50]
0.059378468 -0.43148455 -0.21127515 0.1906485 -0.7785079 -0.6461979 0.0702949 0.30092126
-0.18046622 -0.4392919 -0.6008278 -0.41116974 -0.29240146 -0.32648486 -0.9427527 0.11662801
-0.28047457 -0.06426372 0.07228749 -0.0010898178 0.052903432 -0.14145736 0.0013248597 0.31258512
-0.34754282 0.60024136 0.9547324 0.264734 -0.30309954 -0.21791542 0.7586069 -0.16978686
-0.3478358 -0.5873263 -0.3184969 -0.2654305 -0.52667314 -0.24046317 -0.7815872 -0.025386244
-0.116912216 -0.05855623 0.019612327 -0.26827624 -0.12392916 0.6510033 -0.0038510433 -0.19735228
0.124008894 -0.12623012 0.47400194 0.19599481 -0.18442996 0.05332954 -0.2372188 0.24768646
0.011775429 0.084919244 0.29142344 1.0601826 0.17720132 0.72516894 0.11309542 0.12868813
0.71339816 0.522107 0.29377314 -0.12852639 -0.22321106 0.12277071 -0.06869838 -0.031358957
-0.27691668 0.13907504 -0.0608821 -0.28024602 -0.8943547 0.37641084 0.15281437 -0.03159544
-0.5619565 0.01749751 0.28182748 0.10289129 -0.061128624 -0.27110985 -0.20126754 -0.5065189
-0.23349804 0.088171184 0.06942552 -0.31328085 -0.07423065 -0.4253406 -0.19526792 0.4106785
0.17585708 0.023943216 0.08267166 0.05240372 -0.41147488 -0.3324871 0.09562963 -0.19540331
-0.25947884 -0.18282554 0.1859322 -0.37652844 -0.065140516 0.17471048 -0.37945533 -0.5739571
0.07807626 0.13650182 -0.4541558 -0.8087822 0.41630065 0.4472939 -0.17095144 -0.07381549
-0.20886175 -0.07383633 0.018489825 0.27378887 -0.32694662 -0.18751903 0.33004797 -0.53926075
-0.011216317 -0.030210674 -1.0856506 0.1384741 -0.3607316 0.38044038 0.18841979 -0.19773388
0.42428526 0.4274374 -0.6413325 0.29057425 0.06840569 0.09068072 -0.30112413 -0.11055589
-0.33442813 -0.5342472 0.52775085 0.10610813 0.18577848 0.20753038 -0.36634737 -0.18870707
0.21847087 -0.067673214 0.61281013 0.27897984 -0.119647324 -0.4234613 0.04883775 0.38222307
-0.054561373 -0.22940344 -0.37659052 -0.15051313 -0.7907507 0.03127734 0.37784222 0.74285746
0.12724616 -0.12121763 -0.019980365 -0.04982239 0.149667 0.32995218 0.11508648 -0.816438
0.40886244 -0.036144592 -0.3494964 -0.0373576 -0.5784216 -0.24059945 1.1000804 -0.023296133
-0.07744708 0.31573367 0.7488131 0.10601326 0.63073087 0.10843375 -0.261257 -0.24538931
-0.37218475 0.62712395 -0.31610957 0.53306895 -0.53716034 0.24294853 -0.37810913 0.16701558
-0.14300388 0.035612274 0.038247436 -0.09486362 -0.30101547 -0.6364982 -0.03150692 0.20423731
-0.12623698 -0.25860482 0.47817332 -0.0575852 0.15329558 0.26082313 0.761312 -0.45171234
-0.10050881 -0.3359366 -0.27303118 -0.049961038 -0.08393656 0.26724666 -0.44113317 -0.112126455
-0.0062815053 -0.9244472 -0.28748122 -0.056167893 -0.38957623 0.09831318 -0.7320073 -0.22761296
0.43677032 0.44762027 0.24193794 0.00089654326 -0.15818748 -0.12786855 -0.37413195 -0.009178758
0.095508695 0.24644554 -0.16805115 -0.059949618 0.3421778 0.43477547 -0.23576759 0.29401642
0.0025731325 -0.18675481
00000000: d636 733d 8beb dcbe 8358 58be 5c39 433e
00000010: 4b4c 47bf 3a6d 25bf c6f6 8f3d 5a12 9a3e
00000020: 23cc 38be deea e0be dacf 19bf d784 d2be
00000030: a5b5 95be 0629 a7be 3e58 71bf abda ee3d
00000040: 5d9a 8fbe b29c 83bd 770b 943d 38d8 8eba
00000050: 45b1 583d 33da 10be eaa6 ad3a 280b a03e
00000060: 22f1 b1be 6ba9 193f 5869 743f 378b 873e
00000070: dd2f 9bbe 3825 5fbe 1034 423f 9bdc 2dbe
00000080: 8917 b2be 045b 16bf 0712 a3be 82e6 87be
00000090: 0dd4 06bf fa3b 76be 1916 48bf d0f6 cfbc
000000a0: ac6f efbd a8d8 6fbd 08aa a03c 815b 89be
000000b0: 92ce fdbd 27a8 263f c961 7cbb b716 4abe
000000c0: 60f8 fd3d 7842 01be 62b0 f23e ddb2 483e
000000d0: 35db 3cbe 1370 5a3d 7ce9 72be 85a1 7d3e
000000e0: bbed 403c 24ea ad3d 7435 953e 10b4 873f
000000f0: 4374 353e aca4 393f 929e e73d d2c6 033e
00000100: 43a1 363f cea8 053f 6f69 963e 6c9c 03be
00000110: 7191 64be 366f fb3d bcb1 8cbd 4072 00bd
00000120: 06c8 8dbe b069 0e3e 825f 79bd 687c 8fbe
00000130: 6ef4 64bf ecb8 c03e 5f7b 1c3e 386a 01bd
00000140: 62dc 0fbf f056 8f3c b14b 903e abb8 d23d
00000150: 0262 7abd e9ce 8abe 1419 4ebe 39ab 01bf
00000160: 1c1a 6fbe 1893 b43d f82e 8e3d 5966 a0be
00000170: 3d06 98bd 3ec6 d9be 50f4 47be 7444 d23e
00000180: e113 343e 9024 c43c c24f a93d 48a5 563d
00000190: d6ac d2be c03b aabe 78d9 c33d ce17 48be
000001a0: 69da 84be 9e36 3bbe 0365 3e3e 56c8 c0be
000001b0: 6468 85bd 4ee7 323e f847 c2be daee 12bf
000001c0: 72e6 9f3d 22c7 0b3e 1c87 e8be 5a0c 4fbf
000001d0: 5c25 d53e b503 e53e e50d 2fbe 932c 97bd
000001e0: dbdf 55be 8037 97bd f977 973c 0e2e 8c3e
000001f0: 8c65 a7be fd04 40be 0cfc a83e fe0c 0abf
00000200: a5c4 37bc 607c f7bc 99f6 8abf 28cc 0d3e
00000210: d0b1 b8be 15c9 c23e 1ef1 403e c07a 4abe
00000220: eb3b d93e 13d9 da3e 5e2e 24bf 26c6 943e
00000230: 4818 8c3d d0b6 b93d f12c 9abe 206b e2bd
00000240: 2a3a abbe 6dc4 08bf ae1a 073f 384f d93d
00000250: b73c 3e3e d882 543e e291 bbbe 6d3c 41be
00000260: d4b6 5f3e 4198 8abd 20e1 1c3f 72d6 8e3e
00000270: a809 f5bd ebcf d8be 180a 483d beb2 c33e
00000280: bf7b 5fbd bce8 6abe 79d0 c0be 1d20 1abe
00000290: a36e 4abf ab1c 003d 8974 c13e e82b 3e3f
000002a0: d14c 023e f340 f8bd ddad a3bc 9012 4cbd
000002b0: 4e42 193e 7eef a83e 76b2 eb3d 1502 51bf
000002c0: 6b56 d13e 5a0c 14bd 31f1 b2be 4804 19bd
000002d0: 7013 14bf b45f 76be 6fcf 8c3f 88d7 bebc
000002e0: 939c 9ebd d8a7 a13e 37b2 3f3f 7b1d d93d
000002f0: 9477 213f 8412 de3d 7ac3 85be 5647 7bbe
00000300: 008f bebe 328b 203f 1dd9 a1be 3577 083f
00000310: 5783 09bf 80c7 783e 8597 c1be 2206 2b3e
00000320: 9c6f 12be 2dde 113d 58a9 1c3d dc47 c2bd
00000330: b31e 9abe 8cf1 22bf 660d 01bd 9623 513e
00000340: 4444 01be da67 84be 22d3 f43e 75de 6bbd
00000350: 84f9 1c3e 9c8a 853e 58e5 423f d746 e7be
00000360: 90d7 cdbd e2ff abbe beca 8bbe f2a3 4cbd
00000370: eee6 abbd 8ed4 883e 35dc e1be 8ea2 e5bd
00000380: 16d5 cdbb 92a8 6cbf bd30 93be 4e10 66bd
00000390: 8976 c7be 6c58 c93d d564 3bbf 5f13 69be
000003a0: 5ca0 df3e 7c2e e53e 94be 773e 0006 6b3a
000003b0: e6fb 21be f9ef 02be 398e bfbe 8062 16bc
000003c0: 109a c33d 385c 7c3e 9a15 2cbe bb8d 75bd
000003d0: ee31 af3e e49a de3e 0f6d 71be 5289 963e
000003e0: 00a2 283b a73c 3fbe

arith.constant4 f4 [5]
0.1890384 -0.2395725 -0.07115184 0.08806442 -0.13346086
00000000: 4893 413e 7e52 75be 0eb8 91bd 1e5b b43d
00000010: f7a9 08be

arith.constant16 f4 [200, 8]
0.018587887 0.019728288 -0.16639508 0.0354279 -0.023568451 -0.116992995 0.15918446 0.1268524
0.03050606 0.07383758 -0.14095585 -0.15462387 0.10253492 -0.077519074 0.081501275 -0.15351596
-0.1088501 -0.16506492 0.13500401 0.11327383 -0.13339455 -0.12922001 -0.030311242 -0.10653765
-0.05508995 -0.01256226 -0.07162862 0.08568141 0.13730246 0.1493988 0.15978011 -0.12249349
-0.15863016 -0.08938546 0.12381795 -0.081632875 0.011170581 0.0630859 -0.12003401 0.007118091
0.14199406 0.020829111 0.0923748 0.042589933 -0.090712465 -0.119415104 0.024128675 0.16442892
0.15721637 0.11020866 -0.026163742 0.025311485 -0.01991862 -0.035978213 -0.050289176 0.15752926
0.052646548 -0.016524628 0.14344916 -0.014160737 -0.16333063 -0.13165711 -0.11083549 -0.07913407
-0.00037132204 -0.054677486 -0.038898513 0.07217994 -0.05229044 0.16325086 -0.08070149 -0.107551515
0.00028328598 -0.035905078 -0.019534811 0.039821267 -0.117204815 0.14429209 -0.06699902 0.09039706
-0.06691762 0.117935 -0.12392955 0.024178758 -0.02928716 0.08947632 -0.09283934 0.04740067
0.14051864 0.0047878176 -0.12531973 0.15493745 0.030288115 -0.10149095 0.037416935 -0.024774656
-0.13797727 0.09881863 0.0384524 0.036785886 -0.064995244 0.0069787055 -0.03972441 -0.11001258
-0.08199246 0.055652082 -0.07687673 -0.15389924 -0.14858744 -0.15511864 -0.05593039 -0.0938501
0.15889025 0.10064298 -0.14298719 -0.1589827 -0.099366106 -0.026508257 -0.07327314 0.14080027
0.14548376 -0.016228005 0.043870494 0.04577814 0.1570197 0.12310839 0.074681506 0.15446857
0.06398128 0.1593149 0.1524252 -0.12611106 0.07064864 -0.037246913 0.06583592 -0.021127298
0.057501823 -0.07215244 0.15154514 -0.021252707 -0.022911042 -0.0878789 -0.0048558414 -0.16935414
-0.04520487 -0.048723705 0.056226313 0.09367517 0.0922592 0.12863886 0.06952281 -0.023639798
-0.11952926 0.042493507 0.0900152 -0.01628089 0.029856548 0.02262029 0.1034196 0.051669076
0.10516325 -0.11467572 0.16093156 0.030103058 -0.08755949 0.011030436 0.03676893 0.15505978
0.06245634 -0.08311372 0.0621486 -0.15323365 -0.09456395 0.026446104 -0.16200322 -0.0039131194
-0.050413936 0.12272605 -0.14720353 -0.15767476 0.0798012 0.1686843 0.025993392 0.053509623
-0.034897313 -0.10658984 -0.16679958 -0.06198387 -0.12029952 0.03412479 -0.011789724 -0.032507434
-0.111772746 0.1269562 0.051196277 -0.10871461 0.02485682 -0.14733866 -0.07932844 -0.109260425
-0.13836363 0.01261583 -0.059037857 0.09486228 -0.1214235 0.065538615 -0.03997782 0.16171697
0.071155295 0.13062203 0.02049005 -0.13601346 -0.14775176 -0.030385956 -0.1621196 0.12362552
-0.0014363825 0.044904858 -0.13861582 0.07323584 -0.15763256 -0.040959224 -0.13086668 0.11705205
-0.07935654 0.16283017 -0.10074434 0.010566786 0.15150481 -0.03210683 0.15137029 -0.073651716
-0.08770498 -0.08165357 0.09179336 -0.1572618 -0.1191651 -0.11715108 -0.052625522 -0.14523956
0.14333722 -0.028095365 0.025858626 0.007311806 0.040251076 -0.03635694 -0.07709349 -0.16400808
-0.16049196 -0.05989927 0.06441432 0.09223786 -0.03218572 0.05236645 0.035174817 -0.008241415
00000000: a045 983c 389d a13c 7963 2abe d81c 113d
00000010: a012 c1bc 069a efbd 4001 233e 98e5 013e
00000020: d8e7 f93c 2838 973d bb56 10be b855 1ebe
00000030: d4fd d13d 52c2 9ebd 24ea a63d 4a33 1dbe
00000040: cdec debd c706 29be 7e3e 0a3e 1cfc e73d
00000050: 9598 08be 4052 04be 484f f8bc 6930 dabd
00000060: 00a6 61bd f0d1 4dbc 07b2 92bd bc79 af3d
00000070: 0499 0c3e 00fc 183e 669d 233e dedd fabd
00000080: f26f 22be b90f b7bd 4494 fd3d 232f a7bd
00000090: d004 373c 2e33 813d 64d4 f5bd e03e e93b
000000a0: e466 113e d0a1 aa3c 002f bd3d c872 2e3d
000000b0: 75c7 b9bd e88f f4bd 80a9 c53c 0e60 283e
000000c0: 54fd 203e 14b5 e13d 5855 d6bc 085a cf3c
000000d0: 602c a3bc e45d 13bd 06fc 4dbd 5a4f 213e
000000e0: e8a3 573d a85e 87bc 56e4 123e 7002 68bc
000000f0: 2540 27be 1fd1 06be b8fd e2bd 0b11 a2bd
00000100: 00ae c2b9 80f5 5fbd 0c54 1fbd 14d3 933d
00000110: 802e 56bd 3c2b 273e d346 a5bd f843 dcbd
00000120: 0086 9439 3411 13bd 7807 a0bc a01b 233d
00000130: 1409 f0bd 4ec1 133e c836 89bd 1822 b93d
00000140: 1b0c 89bd e887 f13d c7ce fdbd 8812 c63c
00000150: a0eb efbc 5c3f b73d 8d22 bebd 3427 423d
00000160: 1ee4 0f3e 20e3 9c3b d153 00be eca7 1e3e
00000170: c81e f83c 7dda cfbd 8042 193d 38f4 cabc
00000180: ea49 0dbe 6c61 ca3d 4480 1d3d ccac 163d
00000190: 3a1c 85bd a0ad e43b 10b6 22bd 474e e1bd
000001a0: aaeb a7bd 70f3 633d 8c71 9dbd c397 1dbe
000001b0: 4e27 18be 6cd7 1ebe 4417 65bd 7b34 c0bd
000001c0: 20b4 223e e81d ce3d 3c6b 12be 5ccc 22be
000001d0: 7580 cbbd d827 d9bc 3a10 96bd f22d 103e
000001e0: b2f9 143e 98f0 84bc 8cb1 333d dc81 3b3d
000001f0: c6c9 203e 4020 fc3d 9ef2 983d 022d 1e3e
00000200: 9e08 833d 7223 233e 5a15 1c3e 4223 01be
00000210: 3cb0 903d 3890 18bd fcd4 863d 2813 adbc
00000220: 0887 6b3d a9c4 93bd a62e 1b3e 281a aebc
00000230: f0af bbbc daf9 b3bd c01d 9fbb 2c6b 2dbe
00000240: be28 39bd 8292 47bd 904d 663d c4d8 bf3d
00000250: 64f2 bc3d e8b9 033e fa61 8e3d 40a8 c1bc
00000260: c2cb f4bd ac0d 2e3d e459 b83d 805f 85bc
00000270: b895 f43c 304e b93c a8cd d33d f4a2 533d
00000280: d45f d73d 1bdb eabd 3ecb 243e b09a f63c
00000290: 6452 b3bd 00b9 343c 049b 163d fec7 1e3e
000002a0: 38d2 7f3d 8737 aabd 888f 7e3d 48e9 1cbe
000002b0: bfaa c1bd 80a5 d83c 2ce4 25be a039 80bb
000002c0: d87e 4ebd cc57 fb3d 86bc 16be 7e75 21be
000002d0: d06e a33d 94bb 2c3e 18f0 d43c e82c 5b3d
000002e0: 7cf0 0ebd c64b dabd 82cd 2abe cce2 7dbd
000002f0: 985f f6bd 70c6 0b3d b029 41bc 8426 05bd
00000300: 1ce9 e4bd ce00 023e 30b3 513d c4a5 debd
00000310: 88a0 cb3c f2df 16be f376 a2bd eec3 dfbd
00000320: 32af 0dbe a0b2 4e3c aed1 71bd 2847 c23d
00000330: e2ac f8bd 1c39 863d c8bf 23bd 2299 253e
00000340: deb9 913d c8c1 053e c0da a73c 1d47 0bbe
00000350: 3d4c 17be f8eb f8bc ae02 26be 602f fd3d
00000360: 0045 bcba 28ee 373d 4ef1 0dbe acfc 953d
00000370: 6e6a 21be dcc4 27bd ea01 06be fcb8 ef3d
00000380: af85 a2bd f4bc 263e 0c53 cebd 5020 2d3c
00000390: 1424 1b3e 7482 03bd d000 1b3e b6d6 96bd
000003a0: ab9e b3bd fd39 a7bd 28fe bb3d 3d09 21be
000003b0: d50c f4bd e8ec efbd dc8d 57bd aeb9 14be
000003c0: fec6 123e 4028 e6bc 78d5 d33c e097 ef3b
000003d0: 50de 243d 04eb 14bd 31e3 9dbd bcf1 27be
000003e0: 0158 24be f058 75bd a8eb 833d 34e7 bc3d
000003f0: 2cd5 03bd 347e 563d 7813 103d 0007 07bc

arith.constant17 f4 [200, 50]
0.090895295 -0.041067548 0.030653253 0.07790986 -0.07740224 0.057367817 0.015510827 0.055954587
-0.07302841 0.17892316 -0.014494464 0.10650934 -0.036126677 0.01994291 -0.07348453 0.05378691
0.06796264 0.016833875 0.06941977 -0.0144471 -0.15928477 -0.008684948 -0.028165799 0.06396188
-0.011572624 0.07847138 -0.0680437 0.04864552 0.057004873 0.15173458 0.024120864 -0.055047948
0.08729364 0.09272775 -0.008303412 -0.06103665 0.006252703 0.03010282 0.08236624 -0.13613121
-0.060856827 0.050755687 0.12193512 0.039398305 -0.060867064 -0.049251698 0.027884435 -0.027240876
-0.061742306 -0.105022274 -0.121955074 -0.01284349 -0.05857929 0.05864713 -0.122894615 -0.038432185
0.02566433 0.09449556 -0.055762634 -0.0015281178 -0.022871615 0.024672639 0.113844 -0.08276127
-0.022044508 0.061428167 0.0030447394 0.0068241544 -0.12631868 0.028567676 -0.03591048 -0.0049843835
0.06446537 0.027744837 0.0017689652 0.10693599 -0.020802978 0.053348217 -0.098011486 -0.06205985
0.04252653 0.0563083 -0.04282343 -0.0057764337 -0.0056526884 0.089653626 0.04693252 -0.04094253
0.005965652 -0.11473767 -0.043808177 0.077395044 -0.012243642 0.018274289 -0.12920289 0.10838352
0.1406922 0.056493055 0.0049318103 0.0991625 -0.005980416 -0.056460787 -0.09859884 0.0768636
-0.024189679 -0.02510155 -0.048509143 -0.002701236 -0.2019089 0.010114362 -0.012297834 0.021166768
-0.0874878 -0.069539286 -0.023994714 -0.0017910951 -0.00029352444 0.05602797 0.04290914 -0.11845248
0.019406663 -0.07657608 0.018799948 0.21107821 0.037497424 0.014119353 -0.006599016 -0.019995093
-0.03529683 0.06711208 -0.056076676 -0.050659433 0.003042658 0.058976136 -0.018939152 -0.08634728
0.07183461 0.0050886516 -0.04355222 0.060336273 0.057088025 0.04764561 -0.041007783 -0.02579703
-0.044304397 -0.034320407 -0.20543332 -0.004994695 -0.025689594 0.027114796 0.052849706 0.08236326
0.0056412756 0.02447915 0.08658605 0.063855454 0.023256639 -0.012183524 -0.10231553 -0.07559012
-0.06626579 -0.002914893 0.0065006716 -0.048062366 0.02500038 0.06325137 -0.025480624 -0.022440309
0.0687556 -0.046462048 0.015733179 0.10098684 0.13098195 -0.013530116 -0.08680194 -0.041530866
0.038265444 -0.11744601 0.057268377 0.104378276 -0.029747989 -0.08505182 -0.1661927 -0.03010436
0.1501343 -0.022219824 -0.079166815 -0.044566546 -0.06657124 -0.011941994 0.086923026 0.07295502
-0.0020587803 0.053348772 -0.072700635 0.17614412 -0.069053665 0.008323889 -0.014022962 -0.009211234
-0.06723201 -0.045116987 -0.15859605 -0.024178594 -0.03627479 0.03810776 -0.0029731626 0.15711513
0.15345074 0.03800138 0.015182177 0.03119017 0.005099817 0.026129492 -0.14860797 -0.06284625
0.13804899 0.13628446 -0.09136959 -0.061621524 -0.11802671 -0.015212179 0.17987382 0.024309281
0.032916974 0.023935335 0.031127874 0.013231611 0.013630694 0.06425987 -0.028399814 -0.15019426
0.0073957373 -0.001203726 -0.031457007 -0.017181583 -0.01798581 0.080766425 -0.07708963 0.071053594
-0.0047697197 0.11958561 -0.02504161 0.03089637 -0.028228499 0.036167078 -0.043152034 0.02230861
-0.13406481 -0.017499981 -0.0237418 0.10489038 -0.03974353 0.025219167 0.06943852 -0.012112975
00000000: 5027 ba3d 7236 28bd 881c fb3c 348f 9f3d
00000010: 1185 9ebd 84fa 6a3d 2021 7e3c a330 653d
00000020: eb8f 95bd a237 373e 307a 6dbc 9221 da3d
00000030: 91f9 13bd 505f a33c 0f7f 96bd aa4f 5c3d
00000040: ff2f 8b3d 32e7 893c f42b 8e3d 88b3 6cbc
00000050: 8c1b 23be 504b 0ebc f6bb e6bc 72fe 823d
00000060: 1a9b 3dbc 9ab5 a03d 7f5a 8bbd 8640 473d
00000070: f17d 693d 4f60 1b3e 1e99 c53c f579 61bd
00000080: 02c7 b23d 0ce8 bd3d 090b 08bc 9101 7abd
00000090: 79e3 cc3b 309a f63c a2af a83d fb65 0bbe
000000a0: 0245 79bd 32e5 4f3d 1fb9 f93d 1e60 213d
000000b0: be4f 79bd 26bc 49bd e66d e43c 4228 dfbc
000000c0: 80e5 7cbd eb15 d7bd 95c3 f9bd 806d 52bc
000000d0: d6f0 6fbd f937 703d 2cb0 fbbd 116b 1dbd
000000e0: 003e d23c e386 c13d 5c67 64bd 204b c8ba
000000f0: 415d bbbc 461e ca3c 0b27 e93d be7e a9bd
00000100: af96 b4bc 1a9c 7b3d 408a 473b 289d df3b
00000110: af59 01be c206 ea3c de16 13bd 0a54 a3bb
00000120: 6b06 843d 2449 e33c 9fdc e73a 4201 db3d
00000130: 026b aabc a983 5a3d 3fba c8bd 7832 7ebd
00000140: 4c30 2e3d 88a3 663d 9f67 2fbd 3d48 bdbb
00000150: 303a b9bb 529c b73d 503c 403d 5bb3 27bd
00000160: 847b c33b 95fb eabd 3470 33bd 4b81 9e3d
00000170: 8e99 48bc f6b3 953c c34d 04be 2ef8 dd3d
00000180: 9e11 103e 4365 673d 069b a13b b515 cb3d
00000190: 5ef7 c3bb 6d43 67bd 30ee c9bd aa6a 9d3d
000001a0: 6f29 c6bc c4a1 cdbc 86b1 46bd 3807 31bb
000001b0: 35c1 4ebe b6b6 253c db7c 49bc ee65 ad3c
000001c0: ce2c b3bd 9d6a 8ebd 9090 c4bc 2ec3 eaba
000001d0: 2fe4 99b9 967d 653d 7fc1 2f3d 3797 f2bd
000001e0: b9fa 9e3c ebd3 9cbd 5902 9a3c e324 583e
000001f0: e696 193d dc54 673c 8f3c d8bb c0cc a3bc
00000200: 6993 10bd 0f72 893d a8b0 65bd 4480 4fbd
00000210: 5567 473b f690 713d 4826 9bbc d8d6 b0bd
00000220: 061e 933d b4be a63b d063 32bd 2b23 773d
00000230: 22d5 693d 0b28 433d c7f7 27bd 4b54 d3bc
00000240: 8778 35bd 8e93 0cbd 1d5d 52be 8aaa a3bb
00000250: fc72 d2bc d91f de3c ef78 583d 12ae a83d
00000260: 73da b83b 8088 c83c 0754 b13d a6c6 823d
00000270: b584 be3c 679d 47bc ce8a d1bd fece 9abd
00000280: 5cb6 87bd ca07 3fbb 9603 d53b 0bdd 44bd
00000290: 99cd cc3c ef89 813d bebc d0bc bdd4 b7bc
000002a0: bccf 8c3d fd4e 3ebd dee2 803c 30d2 ce3d
000002b0: 2220 063e 6bad 5dbc 37c5 b1bd 451c 2abd
000002c0: 3abc 1c3d 8987 f0bd 3f92 6a3d 47c4 d53d
000002d0: 0eb2 f3bc a62f aebd 6b2e 2abe 6b9d f6bc
000002e0: cebc 193e 5906 b6bc 3622 a2bd 698b 36bd
000002f0: 8156 88bd 5aa8 43bc b304 b23d 7169 953d
00000300: 9aec 06bb 3e84 5a3d 12e4 94bd 205f 343e
00000310: 026c 8dbd ec60 083c 91c0 65bc b7ea 16bc
00000320: f0b0 89bd 97cc 38bd 0167 22be 3012 c6bc
00000330: e094 14bd e216 1c3d 64d9 42bb cae2 203e
00000340: 3122 1d3e 56a7 1b3d aabe 783c 8782 ff3c
00000350: 5e1c a73b 840d d63c b02c 18be 89b5 80bd
00000360: b75c 0d3e 278e 0b3e fb1f bbbd da66 7cbd
00000370: fdb7 f1bd 813c 79bc d830 383e 4224 c73c
00000380: f3d3 063d 0914 c43c e2ff fe3c 66c9 583c
00000390: 4653 5f3c ae9a 833d baa6 e8bc 86cc 19be
000003a0: f157 f23b 58c6 9dba 10d9 00bd 64c0 8cbc
000003b0: fa56 93bc de68 a53d 2be1 9dbd 8c84 913d
000003c0: 4f4b 9cbb 4de9 f43d 1024 cdbc 621a fd3c
000003d0: 743f e7bc ee23 143d 30c0 30bd 8cc0 b63c
000003e0: 4948 09be 1f5c 8fbc 2a7e c2bc c4d0 d63d
000003f0: 1dca 22bd 6d98 ce3c c835 8e3d 8075 46bc

sequential_1/lstm_1/while/lstm_cell_1/add_1/ReadVariableOp f4 [200]
0.0 0.0 0.0 0.0 0.0 0.0 0.0 0.0
0.0 0.0 0.0 0.0 0.0 0.0 0.0 0.0
0.0 0.0 0.0 0.0 0.0 0.0 0.0 0.0
0.0 0.0 0.0 0.0 0.0 0.0 0.0 0.0
0.0 0.0 0.0 0.0 0.0 0.0 0.0 0.0
0.0 0.0 0.0 0.0 0.0 0.0 0.0 0.0
0.0 0.0 1.0 1.0 1.0 1.0 1.0 1.0
1.0 1.0 1.0 1.0 1.0 1.0 1.0 1.0
1.0 1.0 1.0 1.0 1.0 1.0 1.0 1.0
1.0 1.0 1.0 1.0 1.0 1.0 1.0 1.0
1.0 1.0 1.0 1.0 1.0 1.0 1.0 1.0
1.0 1.0 1.0 1.0 1.0 1.0 1.0 1.0
1.0 1.0 1.0 1.0 0.0 0.0 0.0 0.0
0.0 0.0 0.0 0.0 0.0 0.0 0.0 0.0
0.0 0.0 0.0 0.0 0.0 0.0 0.0 0.0
0.0 0.0 0.0 0.0 0.0 0.0 0.0 0.0
0.0 0.0 0.0 0.0 0.0 0.0 0.0 0.0
0.0 0.0 0.0 0.0 0.0 0.0 0.0 0.0
0.0 0.0 0.0 0.0 0.0 0.0 0.0 0.0
0.0 0.0 0.0 0.0 0.0 0.0 0.0 0.0
0.0 0.0 0.0 0.0 0.0 0.0 0.0 0.0
0.0 0.0 0.0 0.0 0.0 0.0 0.0 0.0
0.0 0.0 0.0 0.0 0.0 0.0 0.0 0.0
0.0 0.0 0.0 0.0 0.0 0.0 0.0 0.0
0.0 0.0 0.0 0.0 0.0 0.0 0.0 0.0
00000000: 0000 0000 0000 0000 0000 0000 0000 0000
00000010: 0000 0000 0000 0000 0000 0000 0000 0000
00000020: 0000 0000 0000 0000 0000 0000 0000 0000
00000030: 0000 0000 0000 0000 0000 0000 0000 0000
00000040: 0000 0000 0000 0000 0000 0000 0000 0000
00000050: 0000 0000 0000 0000 0000 0000 0000 0000
00000060: 0000 0000 0000 0000 0000 0000 0000 0000
00000070: 0000 0000 0000 0000 0000 0000 0000 0000
00000080: 0000 0000 0000 0000 0000 0000 0000 0000
00000090: 0000 0000 0000 0000 0000 0000 0000 0000
000000a0: 0000 0000 0000 0000 0000 0000 0000 0000
000000b0: 0000 0000 0000 0000 0000 0000 0000 0000
000000c0: 0000 0000 0000 0000 0000 803f 0000 803f
000000d0: 0000 803f 0000 803f 0000 803f 0000 803f
000000e0: 0000 803f 0000 803f 0000 803f 0000 803f
000000f0: 0000 803f 0000 803f 0000 803f 0000 803f
00000100: 0000 803f 0000 803f 0000 803f 0000 803f
00000110: 0000 803f 0000 803f 0000 803f 0000 803f
00000120: 0000 803f 0000 803f 0000 803f 0000 803f
00000130: 0000 803f 0000 803f 0000 803f 0000 803f
00000140: 0000 803f 0000 803f 0000 803f 0000 803f
00000150: 0000 803f 0000 803f 0000 803f 0000 803f
00000160: 0000 803f 0000 803f 0000 803f 0000 803f
00000170: 0000 803f 0000 803f 0000 803f 0000 803f
00000180: 0000 803f 0000 803f 0000 803f 0000 803f
00000190: 0000 0000 0000 0000 0000 0000 0000 0000
000001a0: 0000 0000 0000 0000 0000 0000 0000 0000
000001b0: 0000 0000 0000 0000 0000 0000 0000 0000
000001c0: 0000 0000 0000 0000 0000 0000 0000 0000
000001d0: 0000 0000 0000 0000 0000 0000 0000 0000
000001e0: 0000 0000 0000 0000 0000 0000 0000 0000
000001f0: 0000 0000 0000 0000 0000 0000 0000 0000
00000200: 0000 0000 0000 0000 0000 0000 0000 0000
00000210: 0000 0000 0000 0000 0000 0000 0000 0000
00000220: 0000 0000 0000 0000 0000 0000 0000 0000
00000230: 0000 0000 0000 0000 0000 0000 0000 0000
00000240: 0000 0000 0000 0000 0000 0000 0000 0000
00000250: 0000 0000 0000 0000 0000 0000 0000 0000
00000260: 0000 0000 0000 0000 0000 0000 0000 0000
00000270: 0000 0000 0000 0000 0000 0000 0000 0000
00000280: 0000 0000 0000 0000 0000 0000 0000 0000
00000290: 0000 0000 0000 0000 0000 0000 0000 0000
000002a0: 0000 0000 0000 0000 0000 0000 0000 0000
000002b0: 0000 0000 0000 0000 0000 0000 0000 0000
000002c0: 0000 0000 0000 0000 0000 0000 0000 0000
000002d0: 0000 0000 0000 0000 0000 0000 0000 0000
000002e0: 0000 0000 0000 0000 0000 0000 0000 0000
000002f0: 0000 0000 0000 0000 0000 0000 0000 0000
00000300: 0000 0000 0000 0000 0000 0000 0000 0000
00000310: 0000 0000 0000 0000 0000 0000 0000 0000
