verification_loop_model.tflite (tflite, 58932 bytes, 5 tensors)

arith.constant3 f4 [5, 50]
00000000: 05e1 0dbf 3cfe 113e dfc2 b9be a973 67bc
00000010: 7987 39be 7457 843d d063 ce3c 1119 8a3e
00000020: 62fb 11bf b3b2 4ebd 0083 06bf 6e94 d93e
00000030: e12a e2be 6233 08be 26b2 423b 61b4 bebd
00000040: ee6b 8bbe 0c04 7bbd 0e92 0a3f 8d8b 1fbe
00000050: 4094 993e 64da 27be 722b 1e3e cdef c6bd
00000060: 387f 86bb 7c4c 23bf cff7 84be ae6e 9fbd
00000070: 26af 9e3e 6c83 423e fd9f edbb 9a9d 4dbe
00000080: 5658 993e f682 813e a44f 97be 98d2 8bbe
00000090: 3aca 79be ebf9 b0be 28b7 35bd 4a09 fe3d
000000a0: b866 153e 5ef0 cd3e 4382 153e 93b8 cc3b
000000b0: 9496 133f 96ab ae3e d491 0ebb ba32 bd3e
000000c0: f498 963e 661c 413e afaa b53e 0028 8bbd
000000d0: ac7d d13e 1ffd 493e 815f 70bc a023 0cbc
000000e0: 57a7 243e 0963 cdbe 1dea f93d 594e 30be
000000f0: cf3d 90be c7c4 d1be 5149 d0bc ca88 c23e
00000100: 2435 3d3e bc2c 833e d296 37be 9789 f3bd
00000110: 02d7 983e d4ac 903d 8c9c 6ebd b59e 04be
00000120: 96ab 8cbe 0079 a33c 2295 84be ac62 c63c
00000130: 09ac 32be b285 aabe 23ce 1ebf 30ca bebd
00000140: 32cf 76be 409f 833e f2aa debd 4094 f03b
00000150: 7735 4a3c d040 60bd 75e8 013f b49e 233e
00000160: 8457 4d3e d1e5 8f3e 5cff a03e cf84 b1be
00000170: f6f3 583e d27a 7abe 5b28 793e 8b4e cd3e
00000180: 5d92 4d3e aa53 6f3d a083 b8bd f496 033e
00000190: c240 1b3e aa9c 71be cc6e 783e 0843 a73d
000001a0: 0d4c 0b3e 29c3 76be de2b b8be 5ec8 f7bd
000001b0: c0ae ecbe 1110 5b3e 55f4 a83d 1303 043f
000001c0: c4d1 2cbe ec29 043f 4171 80be 9f9e d63d
000001d0: 88f3 283d a0be 563e 2587 383e 53fc 64be
000001e0: 229a 30be ff6d 38be d151 81be 3965 483e
000001f0: 9103 933e 501f 8a3d 0bec a63e 186b 033c
00000200: 868f dd3d a4fe 30bc efa4 4d3e db3e 19be
00000210: fb6e f0bd 8ebf 9dbe 40d4 c13e 164e 4d3d
00000220: d419 15bf e44a 1fbd 8801 d5bb 8dcc 84be
00000230: fe4c 84be df4e 2c3e e84d a83e 5199 9e3e
00000240: ef28 5a3e 7a99 133e 0856 74bd 996d 86be
00000250: 2238 2bbe 2e50 32be fd18 053e 9a42 8dbe
00000260: 0254 ab3e da2a 14bd c667 503e 467b 35be
00000270: 3344 9d3e 59c1 5a3e b6d0 163e 1ea2 e0bc
00000280: 65d1 40be a2fc 92bd ac72 21bb 05e4 4ebe
00000290: f055 72be 309a 7abd 30ee 543d b084 143e
000002a0: 7864 f9be 3d24 ca3e edac 143e 8d8c 6e3b
000002b0: da6c dd3e f125 9ebc fd27 c03e af04 6f3d
000002c0: e741 c63d f626 0a3f 1471 073f ed11 073e
000002d0: a4ae 283e cc62 ccbd 60b1 233e fe53 44be
000002e0: 5949 ec3c 1bd3 cf3d be35 43be 423f f13d
000002f0: ae49 29bb cdfb e53e 9835 3f3e 816d fd3d
00000300: 2f01 ecbc 335d 1d3e 63ed 36be ae4b 013e
00000310: 192f a63e 2aa0 dfbe 5783 9b3e 674a 99be
00000320: 92c4 c3be 9a16 9e3e 3616 c0be e755 d3bd
00000330: f5c9 133e 650f 80be 1849 80be 6a96 a63e
00000340: 108e 543e c864 20be 98bb 8b3e a4bf b53e
00000350: cb99 883e a986 94be 449b 8fbe 5f47 36be
00000360: 8d87 3ebe a88c 5cbe 4677 463e 6bca 153e
00000370: 8699 64be f71c 1a3f 4b04 0dbf 3011 bb3e
00000380: 378e 93bd 111e de3d 736b b23c e82e 2abe
00000390: b48a 46be 9c73 0a3c edd2 573e e857 c23d
000003a0: d237 cabd 870d 9dbe b75d 933d c067 963e
000003b0: 42c0 ad3e ccc8 903e ecaa 283e dd22 f3be
000003c0: 50b1 aebc 689b c5be e582 91be ed2b 3f3e
000003d0: 1fad d3bd 4ed6 d4be cee5 4f3e 402d 203f
000003e0: 390c 84bd 5887 32be
-0.5542148 0.14257139 -0.36281487 -0.014126697 -0.18118085 0.06461993 0.025194079 0.2697225
-0.57024205 -0.05046339 -0.5254364 0.42496055 -0.4417334 -0.13300851 0.0029708236 -0.09311748
-0.2723078 -0.061283156 0.5412911 -0.15580578 0.29995918 -0.16391903 0.1544626 -0.09713707
-0.004104521 -0.6378858 -0.25970313 -0.07784782 0.30993003 0.18995446 -0.007251738 -0.20079651
0.29950207 0.25295228 -0.29552948 -0.27309108 -0.2439355 -0.34565672 -0.044364125 0.124041155
0.14589965 0.40222448 0.14600472 0.006247589 0.5765164 0.34115285 -0.00217544 0.36952764
0.2941357 0.1885849 0.35481784 -0.06794739 0.40916193 0.19725464 -0.014671207 -0.008553416
0.1607946 -0.4011462 0.12202857 -0.17217387 -0.28172156 -0.40970442 -0.025425585 0.37994987
0.18477303 0.25620067 -0.17928627 -0.118914776 0.29851538 0.07064214 -0.058254763 -0.12951167
-0.2747466 0.019955158 -0.2589503 0.024216972 -0.17448439 -0.33305126 -0.6203329 -0.09315908
-0.24102476 0.25707436 -0.10872449 0.0073418915 0.012341849 -0.05474931 0.50745326 0.15978509
0.20052916 0.28105024 0.31444824 -0.34671637 0.21186814 -0.24460915 0.243318 0.40098986
0.20075364 0.058429398 -0.090094805 0.12850553 0.15161422 -0.23594919 0.24261016 0.08167082
0.1360323 -0.24097885 -0.35970968 -0.12098764 -0.46227074 0.21392848 0.08249728 0.5156719
-0.16876894 0.5162647 -0.25086406 0.10479473 0.041247874 0.20971155 0.18020304 -0.22361879
-0.17246297 -0.1801071 -0.25257733 0.19569863 0.28713658 0.06744254 0.32601961 0.008021139
0.108183905 -0.010802899 0.20082448 -0.14965384 -0.11739918 -0.30810207 0.37857246 0.050123297
-0.58242536 -0.03888978 -0.0065004267 -0.2593731 -0.2583999 0.16826962 0.32871938 0.30976346
0.21304677 0.14414015 -0.05965236 -0.2625549 -0.16720632 -0.17413399 0.12997814 -0.27589875
0.3346253 -0.03617368 0.20352086 -0.17722806 0.30716094 0.21362819 0.14728054 -0.027421053
-0.18829878 -0.07177092 -0.0024635 -0.2020417 -0.23665595 -0.0611822 0.051984966 0.14503741
-0.48709464 0.39480773 0.14519091 0.0036399693 0.4324711 -0.019305201 0.3753051 0.058354076
0.096805386 0.539657 0.5290692 0.13190432 0.1647287 -0.099797815 0.15985632 -0.19172665
0.028843569 0.10147687 -0.1906347 0.117796436 -0.002583127 0.4491867 0.18672788 0.12374402
-0.028809158 0.15367584 -0.17863993 0.12626526 0.32457808 -0.43676883 0.30373642 -0.29939577
-0.3823591 0.3087662 -0.37516946 -0.10319119 0.14432509 -0.25011745 -0.25055766 0.32536632
0.20757318 -0.15663445 0.2729156 0.35497773 0.26679835 -0.29008988 -0.28048146 -0.17800663
-0.18606396 -0.21538031 0.19381437 0.14627998 -0.2232419 0.60200447 -0.55084676 0.3653655
-0.0720486 0.108455785 0.021779751 -0.16619456 -0.19388849 0.008450415 0.21076556 0.09489423
-0.09873928 -0.30674383 0.07195609 0.2937603 0.33935744 0.28278196 0.16471452 -0.47487536
-0.021324784 -0.38595128 -0.28420177 0.186691 -0.103357546 -0.41569752 0.20302507 0.62569046
-0.06447644 -0.17434442

arith.constant4 f4 [5]
00000000: b3ae 8c3c b671 f9bc 4b61 d73d c7a4 bbbd
00000010: 88db 99bc
0.017173147 -0.03044973 0.10516604 -0.09162288 -0.018781438

arith.constant16 f4 [200, 8]
00000000: c6ab a7bd b138 693c 1334 b1bd a507 0f3d
00000010: 257f be3d 7de1 a1bd f0b8 3f3d 02f2 debb
00000020: 408c f1bc 101a 74bd 48b6 efbd bdfb c1bd
00000030: 12a2 1ebe ece0 2abe e650 073e 3c8b a7bd
00000040: 1ae5 7abd e20e 233e e8a4 093e 7678 1cbe
00000050: e663 a03d 2405 353b cc9c bfbd 6d5b 843d
00000060: 465e 76bd 1289 253e d695 2d3e af92 f13b
00000070: a40e afbd dc48 93bd 1840 15be 9462 f2bd
00000080: 50e7 3d3d 17cd adbc 5124 61bd 03e3 143e
00000090: 46e0 193d 2ccc 083d ac41 0abe 1ee0 313d
000000a0: 3ad8 243e c137 26be 57be e3bd beb8 093e
000000b0: 7978 8bbd e7d0 07be 9487 debd 0dc7 16be
000000c0: e479 17be 18a0 bbbc 70cf 063d 6f2b 053e
000000d0: b691 54bd 0b32 813d 8598 183e 3d81 35be
000000e0: 8da9 3b3d e562 1fbe 4ef0 103e 9385 03be
000000f0: 90b8 a73d db30 f73d d90a b63c 7c90 aa3c
00000100: 92a9 653b 18b9 4abd d96c 923d 180f 00be
00000110: 68bd 103d 27d9 1a3e 0788 993d c06e 203e
00000120: 186d 1ebe 3b05 2bbe 626d 273e 562d b6bd
00000130: ec9f b0bd f80d 103e ec5c 823c fe6b 1abe
00000140: 4c91 1b3d 3c1e b23d c04f 03be 3a32 093e
00000150: 4a64 913d 8c28 3e3d 6815 fe3c 207a f6bb
00000160: 791d dbbc 68a6 f7bc e713 823c 3c1c a53b
00000170: e035 103e e596 1abe 42e8 d2bd 310b db3c
00000180: 4564 673d 7dac 02bd 4ba5 1b3c 8a40 d0bd
00000190: 79e3 ac3d 1c50 863d 651b 0fbd 49e9 04bb
000001a0: 9c2f 193e c21d c6bd ea82 0d3e 39e3 f2bd
000001b0: 6cc8 7f3d d4ab c3bd 6f6b 013e 7d61 97bd
000001c0: 0ee9 083e 3884 fbbc 1c06 6b3d e0c3 ddbb
000001d0: 4888 2a3d dc90 bfbd 84ee a83d 2cc3 e1bd
000001e0: 0ef5 12be 47b3 8b3d be2f d3bd 4c49 93bc
000001f0: 78bb ba3c 3d6f 4ebd e736 0c3e 6802 f9bd
00000200: 54a7 e63d cf2c 0dbe 7159 14be b3d4 0bbe
00000210: 06fb d4bd 78fb 9ebc efee 00be 3a5d ddbd
00000220: 421d 12be 77de 78bb dcf5 db3d 6224 bd3d
00000230: 3012 4b3c af16 7f3c 531a 03be 9047 733d
00000240: be37 183e 51ea fb3c cec3 1cbe 758a 383e
00000250: 2c1e a63d 81a0 89bd e144 04be 2e69 4dbd
00000260: d7d4 413e 5b81 683d a8b0 f7bd 0396 6c3d
00000270: 3ac1 3b3c a68e 2dbd 702f fabd f843 c6bd
00000280: e9c6 b93b 6371 ccbd 57a8 3e3e 7cb5 d1bc
00000290: a686 0ebe 3183 2e3e cefe 92bc 3e11 81bc
000002a0: 109d 2c3c d82f fb3d a066 723d 2ac6 903d
000002b0: beea 283e 3c75 bc3d 1a94 fcbd 1810 d03c
000002c0: b172 043d 29ca c6bd 34e6 103e 7ed3 e53d
000002d0: 8537 db3d 68c9 16be 842d afbc 8983 f4bd
000002e0: 0eb9 a9bd aa43 013e 9baa a13d 957b 03bd
000002f0: 0035 bbbc 98a5 183c a241 5a3d 29a2 b2bd
00000300: 2226 04bd 2ae4 98bd 68bf a5bd 96a4 003d
00000310: 1cd2 dd3d 5d2e 883d d42b 583d 08a7 eebc
00000320: 85c9 5fbd 649f ee3d f583 3a3e 1026 9ebd
00000330: e222 12be 0740 0d3e 2ff6 cabd a503 7fbd
00000340: ebea 2f3e ab88 413d 964a df3d 19a0 08be
00000350: 1315 7a3b b0f3 ec3d ec45 f8bc 39d8 153d
00000360: 895a 303e ab99 e4bd 33b2 97bd 1622 123d
00000370: 45ec 423e 26d5 ffbd 381d a83d 20fc 023d
00000380: ce34 28bd c9af 0cbe 1176 1a3e 1449 253e
00000390: fd72 353c fd08 dfbd 182a 973d 4896 abbc
000003a0: 0805 bf3c 8086 553c 768b f63d e4e1 cdbd
000003b0: 0381 82ba 1df9 803c ac1c 9a3c c9cc 31be
000003c0: c42c d13d 84c1 cf3d 492e a1bd a855 d13d
000003d0: 58d4 363d 8a7b 003e 609f 56bc 4196 b8bd
000003e0: 642a 843d 9a19 acbd 9f68 afbd 3628 f2bd
000003f0: 7ae8 d3bd 580e f43c a485 04bd 9473 cdbd
-0.0818706 0.014234708 -0.086525105 0.0349194 0.09301595 -0.079043366 0.04680723 -0.006803752
-0.029485822 -0.059595168 -0.11704689 -0.094718434 -0.15491512 -0.16687363 0.13214454 -0.08180854
-0.061253645 0.15923646 0.13441813 -0.15280327 0.07831554 0.0027621472 -0.093560785 0.064627506
-0.0601485 0.1616557 0.16951689 0.0073722224 -0.08547714 -0.07191631 -0.14575231 -0.118352085
0.046363175 -0.021215959 -0.054966275 0.14539723 0.0375674 0.03339784 -0.13501614 0.043426625
0.16098109 -0.16232206 -0.11120289 0.1344938 -0.06810088 -0.13263284 -0.10865703 -0.1472437
-0.14792591 -0.022903487 0.03291267 0.1300485 -0.051896773 0.06308373 0.14901932 -0.17725082
0.045815993 -0.15565069 0.14154169 -0.12843923 0.081894994 0.12069865 0.02222197 0.020820849
0.0035043699 -0.049492925 0.07149667 -0.12505758 0.035336882 0.151219 0.07496648 0.15667248
-0.15471303 -0.16701214 0.1635032 -0.08895366 -0.08624253 0.14067829 0.01591345 -0.15080258
0.037980363 0.08697173 -0.12823391 0.13398066 0.07099207 0.046425387 0.031016067 -0.0075218827
-0.026747452 -0.030230716 0.01587863 0.005038766 0.14083052 -0.15096624 -0.10298206 0.026738735
0.05649211 -0.03190278 0.009499858 -0.1016856 0.084418245 0.065582484 -0.034938235 -0.002028065
0.14959568 -0.096736446 0.13819471 -0.118597455 0.062446997 -0.09554258 0.12638639 -0.07391641
0.13370153 -0.030702695 0.057378873 -0.006767735 0.041633874 -0.093538016 0.08248618 -0.11023554
-0.14351293 0.06821304 -0.103118405 -0.017979287 0.02279447 -0.050399054 0.13692819 -0.12158662
0.11262384 -0.13786624 -0.14487244 -0.13655357 -0.103994414 -0.019407019 -0.12591146 -0.10808797
-0.14268973 -0.0037974396 0.10740253 0.09235455 0.012394473 0.015569373 -0.1280301 0.05939442
0.14865014 0.03075138 -0.15309069 0.18021567 0.081112236 -0.06720067 -0.129169 -0.050149135
0.18928848 0.056763988 -0.120942414 0.05776025 0.011459643 -0.04237237 -0.12216079 -0.09680933
0.005669464 -0.09982564 0.18618904 -0.025599234 -0.13918552 0.17042233 -0.017943766 -0.015755292
0.0105354935 0.12264985 0.059179902 0.07069047 0.16495797 0.09202048 -0.12332936 0.0253983
0.03233594 -0.09706528 0.14150316 0.112219796 0.10703949 -0.14725268 -0.021384008 -0.11939151
-0.082872495 0.12623468 0.078938685 -0.03210028 -0.02285242 0.009316824 0.05328525 -0.08722336
-0.03226293 -0.07465394 -0.080931485 0.03140696 0.10831091 0.06649468 0.052776173 -0.029132381
-0.054635543 0.11651495 0.182144 -0.077221036 -0.14271119 0.13793956 -0.09910237 -0.062259335
0.17179458 0.047249477 0.10902898 -0.13342322 0.0038159534 0.11569917 -0.030306779 0.03658316
0.17222036 -0.11162122 -0.07407036 0.035677038 0.19035442 -0.12491827 0.08208698 0.031978726
-0.041065983 -0.13738932 0.15084101 0.16141158 0.011074779 -0.10890386 0.073810756 -0.020945683
0.023317829 0.013032556 0.12038319 -0.10052851 -0.0009956661 0.015743786 0.0188125 -0.17363276
0.102136165 0.10144332 -0.07870156 0.10221416 0.0446361 0.12547126 -0.013099521 -0.09013034
0.06453398 -0.084033206 -0.08564877 -0.11824076 -0.10347076 0.029791996 -0.032354012 -0.100318104

arith.constant17 f4 [200, 50]
00000000: f850 193e 3304 843d 7cc5 2b3d 26b7 553d
00000010: 50bd ec3c dd2e 95bd 5b3f 05be 5833 5d3d
00000020: 2579 bd3d e050 743b 66d5 07bd 71b7 a8bc
00000030: 9934 abbc 2604 c4bd f589 4b3d 78e1 2fbd
00000040: 3c8a 493c a047 303d bd58 173e 6a59 1d3d
00000050: 661b 643d cd42 f7bc bcf5 b0bd aec4 d6bc
00000060: a805 743d f22f acbd 128b dcbd b817 b63c
00000070: d2a1 8b3c 7468 d03b 1627 b4bd f274 393d
00000080: 1369 873d 3778 1d3e c83c 88bd 12bd f8bc
00000090: 14df 9d3c a207 df3d 3ec9 84bd f195 023c
000000a0: 6ccd 813c 1cdb 25bc d4b3 adbd 61f6 7c3d
000000b0: 2b2d ddbd 4cb0 20bd c63f 553d 92eb 1a3e
000000c0: 8ddb 823c e461 7ebd c5dd f83d e0cc 9cbd
000000d0: e3a5 8c3c 1d78 d8bd de5e 90bb cd5e a7bd
000000e0: abb0 0cbd aecc 4bbd 7a5f a3bc 1990 293c
000000f0: 28b4 553c d610 bf3d 13dd 5cbe 361e f5bb
00000100: 6fef 4ebd a628 c13d 7aa0 ec3c 6e06 8abd
00000110: d046 c83d db00 e7bc 5ca8 733c 4219 2a3d
00000120: f64a dabd 470b abbc 150b 143d b559 98bd
00000130: 41d9 cd3d c852 2dbd cce3 993d 1df1 cbbd
00000140: 30d5 893d 21ea 553c 68ac 723d 3811 c6bd
00000150: 509e 4e3a eeec 913c 1352 62bd d2ef dcbc
00000160: 0658 573d 67d2 24bd eee2 313d c028 57bd
00000170: ea08 f6bd 40c7 f1bd db6c 6e3d c477 72bd
00000180: 4c97 ecba 5c4b 7f3c 6a87 6dbd 0387 96bd
00000190: 6bc8 323e ec81 d63d 608e 0f3e fdd7 5dbd
000001a0: ce2d 93bd 5fcc 123c bb0c 0cbe 9da2 6b3c
000001b0: 6413 8cbd f491 1e3d 3855 e73c 827a 9a3d
000001c0: 09e3 293e c39f 313e 7dbb 46bc 2b0f 2abd
000001d0: 22de 5bbd 7ef0 18bc e378 e73d 7781 663d
000001e0: 6238 4b3b 742a 4ebd 5ddc 14bd 82b0 6b3d
000001f0: a203 de3d fd2f 31bd f26e 88bd f192 223d
00000200: 5dc7 a4bd ee2e cdbc e02b bd3b 9e3b 86bd
00000210: 98a4 e73a f4a6 b2bd 46b7 1abd 2571 97bd
00000220: 76a4 b13d 3cc6 983d e6ae 003e d834 73bd
00000230: 9459 3bbd 1041 f5bd 3ef6 2d3d be67 283d
00000240: 1886 1dbd 8594 babc bdc1 89bd 94a8 f63d
00000250: 29f8 84bd 64c6 c5bb b7c4 4f3d 0afb 80bd
00000260: 544b 3f3e 0008 6a3a 460e 33bd b2f9 903d
00000270: a114 e3bd c9a3 1ebc 4c7a 90bd 7ada d9bb
00000280: ed6a e03c d20b 92bd a4c5 283d a9d0 35bd
00000290: d829 463d be23 843d 506e f13c f5a2 10bd
000002a0: b245 4fbd 7712 c3bd a2d7 033d c3de 4e3d
000002b0: c4e3 a5bd e912 203e d8c1 b53d ef55 8e3d
000002c0: c9e8 153d 01bf bfbd a46a e1bd 3309 d23d
000002d0: 8a64 11bc 5507 063e d372 8ebd 8d22 4a3d
000002e0: 51ad a53d f61c 113e df80 273e f87c 633d
000002f0: 0817 3e3d 2619 6d3c 9560 353c a26a ddbd
00000300: 632a 90bd 60e2 153d fadb 1abd 4f2f 86bd
00000310: c10c e13d d8d9 ffbc b164 613c bdc5 ec3c
00000320: 100d b43d 900c 663b 7c97 21bd efed 7dbc
00000330: 20a8 2a3d 5092 a2bb 5861 943d 4c75 133d
00000340: 5c82 6b3d d037 a03d e65c 023c e174 b6bc
00000350: 0d34 ed3c e0a0 d5bc 0f09 073e e0eb 9a3c
00000360: 16d5 423c c185 97bb 8e1d 943d 2a41 4fbd
00000370: 20ac 073c 6c03 55bd b083 c3bb 2767 d73d
00000380: 05ee ab3b 3e99 80bd 9dda c33c 1526 e93d
00000390: 382b 50bc dbf4 813d 2172 b9bd 764c 823d
000003a0: 6804 a2bc 3ce6 063d 718d 49be 085a 39bd
000003b0: 5b6c 9abc 0e4c c9bd 8021 193d 0b5c b0bc
000003c0: 69d8 39bd 3a02 903d 4a9f 92bd 5716 cdbc
000003d0: 4f2f 87bc 978b ee3c 1a02 23bd 991f c5bd
000003e0: 940f 79bc 4535 373d 03cd b4bb 13f2 8ebd
000003f0: 4af6 0dbd 48bc 4bbd c2b2 74bc 4007 d73c
0.14972293 0.064461134 0.041936383 0.052176617 0.028898865 -0.07284329 -0.1301245 0.054004043
0.09251622 0.003727965 -0.033162497 -0.020595284 -0.020899104 -0.09571104 0.049692113 -0.042939633
0.012301024 0.043037057 0.14779945 0.03841535 0.05569019 -0.03018322 -0.0864062 -0.026216831
0.059575707 -0.08407582 -0.10768713 0.022228107 0.017044935 0.006360108 -0.087965176 0.045277543
0.06611838 0.1537789 -0.06652218 -0.030363593 0.019271411 0.10890128 -0.064836964 0.007970319
0.015845023 -0.0101230405 -0.08481565 0.061758403 -0.10799631 -0.03923063 0.052062772 0.15128925
0.01597383 -0.062105075 0.12151674 -0.07656264 0.017168945 -0.10569785 -0.0044058403 -0.08172379
-0.03434817 -0.049755745 -0.019942988 0.010349297 0.013043441 0.09329383 -0.21568708 -0.007480408
-0.05052131 0.09431581 0.028885115 -0.067395076 0.097791314 -0.02819865 0.014871683 0.041527994
-0.10658829 -0.0208794 0.03614338 -0.07438985 0.100512035 -0.042315274 0.07514152 -0.09958098
0.067301154 0.013056309 0.05924645 -0.09671253 0.0007881867 0.017813172 -0.055254053 -0.026969824
0.05257418 -0.040239718 0.043429308 -0.052529097 -0.12013419 -0.11805582 0.05820928 -0.05919625
-0.0018050461 0.015581932 -0.05799047 -0.0734997 0.17459266 0.104739994 0.14019156 -0.05416106
-0.07186471 0.008959859 -0.13676731 0.014382032 -0.06839636 0.03871341 0.028238878 0.07542898
0.16590513 0.173461 -0.012129662 -0.04151837 -0.05367864 -0.009334682 0.11302354 0.05627581
0.0031008949 -0.050333455 -0.036342967 0.057541378 0.10840537 -0.043258656 -0.06661786 0.039690915
-0.08045838 -0.025046792 0.0057730526 -0.0655434 0.0017672954 -0.0872325 -0.03777244 -0.073946275
0.086739466 0.07459685 0.12566718 -0.059376568 -0.045739725 -0.119753 0.042471163 0.04111456
-0.03845796 -0.022775898 -0.06726406 0.120438725 -0.06492645 -0.006035613 0.05072471 -0.06297882
0.18681079 0.00089275837 -0.043714784 0.070788756 -0.11087919 -0.009682604 -0.07054576 -0.006648359
0.027394736 -0.07131161 0.04120411 -0.044388447 0.04837975 0.0645213 0.029471546 -0.035311658
-0.050603576 -0.09525006 0.032188065 0.05050541 -0.081000835 0.15632214 0.088748634 0.06949984
0.036598954 -0.09362603 -0.11006668 0.10255661 -0.008874068 0.13088734 -0.06955495 0.049349356
0.08089698 0.14171204 0.16357754 0.0555391 0.046408683 0.014471328 0.01107039 -0.10811354
-0.070393346 0.03659284 -0.037807442 -0.06551992 0.10988761 -0.031231806 0.013756917 0.028902883
0.08791554 0.0035102703 -0.039451107 -0.015498622 0.041664243 -0.0049612895 0.07245129 0.036000535
0.057497367 0.078231454 0.007956719 -0.02227253 0.028955484 -0.026077688 0.1318705 0.018911302
0.011891624 -0.004624099 0.072321996 -0.050599255 0.008280784 -0.052005216 -0.005966626 0.105177216
0.00524688 -0.06279229 0.023907954 0.11384217 -0.012705617 0.063455306 -0.090549715 0.0636224
-0.019777492 0.032934412 -0.19682862 -0.045251876 -0.018850496 -0.098289594 0.037385464 -0.021528265
-0.0453724 0.07031675 -0.07159288 -0.025035067 -0.01650205 0.029119296 -0.039796926 -0.096251674
-0.015201468 0.044728536 -0.0055176034 -0.06979766 -0.034658708 -0.049740106 -0.014935197 0.026248574

sequential_1/lstm_layer_1/while/lstm_cell_1/add_1/ReadVariableOp f4 [200]
00000000: bb72 e2bb 0000 0000 d415 09bc 823f 3a37
00000010: c15b ecba b6eb 1627 4d33 22ba c77f 4f3c
00000020: 5122 ee3b b6d9 08b8 3c18 9d26 2ed8 103c
00000030: 6c53 4dbc 8226 cebb 5a41 ab2d b4d2 ffb4
00000040: 121a 631e 0ea7 8bbc 96b4 133c 0309 c33c
00000050: 3f9e 283c 0000 0000 dc7d 083c feb6 68bb
00000060: f08c 023c d6b0 fe3c 1920 483c bcca 103d
00000070: ac47 a63b e71f 15bc 0000 0000 115d bba2
00000080: 0000 0000 56cf 0b28 d2a3 9c3b 27ac 39bc
00000090: ab51 823c b262 813c 1752 38ab 9cac 8737
000000a0: 0000 0000 a608 6a3c 748d f93b 7772 40b5
000000b0: 977b 803b 8d63 e73b 7465 95bc e44e 333b
000000c0: cee5 933c 0000 0000 0000 803f 0000 803f
000000d0: 0000 803f 0000 803f 0000 803f 0000 803f
000000e0: 0000 803f 0000 803f 0000 803f 0000 803f
000000f0: 0000 803f 0000 803f 0000 803f 0000 803f
00000100: 0000 803f 0000 803f 0000 803f 0000 803f
00000110: 0000 803f 0000 803f 0000 803f 0000 803f
00000120: 0000 803f 0000 803f 0000 803f 0000 803f
00000130: 0000 803f 0000 803f 0000 803f 0000 803f
00000140: 0000 803f 0000 803f 0000 803f 0000 803f
00000150: 0000 803f 0000 803f 0000 803f 0000 803f
00000160: 0000 803f 0000 803f 0000 803f 0000 803f
00000170: 0000 803f 0000 803f 0000 803f 0000 803f
00000180: 0000 803f 0000 803f 0000 803f 0000 803f
00000190: 1e40 953b 0000 0000 8ed1 de3b 96d2 3437
000001a0: f070 5a33 0000 0000 3745 9a3c 0000 0000
000001b0: fd48 3639 0255 16b0 5c9a aa3b 0000 0000
000001c0: 7597 1d29 0000 0000 a83e 2f28 0000 0000
000001d0: 1f30 5a9b b817 ac3b 0000 0000 0000 0000
000001e0: 71a9 573b e2eb e0bc 5cbb a43b 0000 0000
000001f0: 0000 0000 19b3 e73a 5d7e 603a 1689 b495
00000200: 0000 0000 646e 4ebb 667a 1fb2 6bc2 e80f
00000210: 9a9d 683c c9a0 151d 91bb 1ebc e6a0 d1bb
00000220: 0000 0000 941f 31bc 0000 0000 e01c 07bb
00000230: a54d 3494 0000 0000 209e 343b 508e c028
00000240: 2341 82bc 10ef e0bb 0000 0000 3384 213a
00000250: eff1 20bc fbfd 433c 0000 0000 0000 0000
00000260: 8097 53ba 55ca 67bb 0000 0000 fc1e e626
00000270: aa39 46b2 8a3a 023c 4431 023c 6de8 c6b7
00000280: a515 233d 5d10 ee3c e92a 61bc 0bca e7bb
00000290: 1756 acb1 5247 07b4 fe92 c41d 3d65 933b
000002a0: 7078 c1bc 0000 0000 19a7 1e3d 0af9 503b
000002b0: c62d dd3b c7a7 4e3b 0288 013c 0000 0000
000002c0: 694b 183c 345f 163c b31d ef3c 9cfc 1fbc
000002d0: e960 e5ba b5d4 9ba2 c9f3 0cbd 5808 fa27
000002e0: ce51 6c3c 3c1a 063d 24f1 023d 09da 183d
000002f0: 0669 f031 bb68 183c 1cbb 3497 3838 23bc
00000300: fdea 3b3c df8c 02bc 0483 783c 0000 0000
00000310: 0000 0000 90a0 143b 51d4 a63c 2ab1 eb3c
-0.0069106496 0.0 -0.008367021 1.11012505e-05 -0.0018032716 2.094446e-15 -0.0006187454 0.012664742
0.0072672744 -3.2627686e-05 1.0900632e-15 0.008840604 -0.012532096 -0.0062912116 1.9469471e-11 -4.7650758e-07
1.2022671e-20 -0.017047431 0.009015223 0.023808008 0.010291635 0.0 0.008330788 -0.0035509462
0.007968172 0.031090181 0.012214684 0.035349593 0.005074462 -0.009101844 0.0 -5.078499e-18
0.0 7.761009e-15 0.004780271 -0.011332548 0.015908083 0.015794132 -6.5483854e-13 1.6173632e-05
0.0 0.0142842885 0.0076157395 -7.169214e-07 0.003920983 0.007061428 -0.018236853 0.0027360255
0.018053915 0.0 1.0 1.0 1.0 1.0 1.0 1.0
1.0 1.0 1.0 1.0 1.0 1.0 1.0 1.0
1.0 1.0 1.0 1.0 1.0 1.0 1.0 1.0
1.0 1.0 1.0 1.0 1.0 1.0 1.0 1.0
1.0 1.0 1.0 1.0 1.0 1.0 1.0 1.0
1.0 1.0 1.0 1.0 1.0 1.0 1.0 1.0
1.0 1.0 1.0 1.0 0.0045547625 0.0 0.006799883 1.0777867e-05
5.0859796e-08 0.0 0.018831832 0.0 0.00017384063 -5.4690485e-10 0.0052063894 0.0
3.499237e-14 0.0 9.728038e-15 0.0 -1.8048086e-22 0.005251851 0.0 0.0
0.0032907391 -0.027456228 0.005027218 0.0 0.0 0.0017677277 0.00085637515 -7.2917704e-26
0.0 -0.0031498903 -9.282848e-09 2.2951853e-29 0.014197731 1.980311e-21 -0.009688274 -0.0063973544
0.0 -0.0108107515 0.0 -0.0020616576 -9.10299e-27 0.0 0.002756007 2.1378e-14
-0.0159002 -0.006864436 0.0 0.0006161362 -0.009823306 0.011962409 0.0 0.0
-0.00080715865 -0.0035368402 0.0 1.5967854e-15 -1.1538228e-08 0.007948527 0.007946316 -2.3711671e-05
0.039815564 0.029060537 -0.013743141 -0.007073646 -5.015646e-09 -1.2598801e-07 5.2032754e-21 0.0044981525
-0.023617 0.0 0.038733575 0.003188672 0.0067498414 0.0031533109 0.007905962 0.0
0.009295323 0.009177972 0.029188966 -0.009764817 -0.0017500195 -4.2238047e-18 -0.03441218 6.9397985e-15
0.014423801 0.032739863 0.03196825 0.03731731 6.996859e-09 0.009302313 -5.83973e-25 -0.009962134
0.0114696 -0.007968157 0.015167955 0.0 0.0 0.002267871 0.020364912 0.028771002
